…
<figure class="highlight plain"><table><tr><td class="code"><pre><span class="line">Loading data...</span><br><span class="line">Vocab size:4762</span><br><span class="line">180000it [00:02, 71756.33it&#x2F;s]</span><br><span class="line">10000it [00:00, 91902.35it&#x2F;s]</span><br><span class="line">10000it [00:00, 89357.25it&#x2F;s]</span><br><span class="line">Time usage: 0:00:03</span><br><span class="line">start train</span><br><span class="line">start model</span><br><span class="line">start network</span><br><span class="line">&lt;bound method Module.parameters of Model(</span><br><span class="line">  (embedding): Embedding(4762, 300)</span><br><span class="line">  (postion_embedding): Positional_Encoding(</span><br><span class="line">    (dropout): Dropout(p&#x3D;0.5, inplace&#x3D;False)</span><br><span class="line">  )</span><br><span class="line">  (encoder): Encoder(</span><br><span class="line">    (attention): Multi_Head_Attention(</span><br><span class="line">      (fc_Q): Linear(in_features&#x3D;300, out_features&#x3D;300, bias&#x3D;True)</span><br><span class="line">      (fc_K): Linear(in_features&#x3D;300, out_features&#x3D;300, bias&#x3D;True)</span><br><span class="line">      (fc_V): Linear(in_features&#x3D;300, out_features&#x3D;300, bias&#x3D;True)</span><br><span class="line">      (attention): Scaled_Dot_Product_Attention()</span><br><span class="line">      (fc): Linear(in_features&#x3D;300, out_features&#x3D;300, bias&#x3D;True)</span><br><span class="line">      (dropout): Dropout(p&#x3D;0.5, inplace&#x3D;False)</span><br><span class="line">      (layer_norm): LayerNorm((300,), eps&#x3D;1e-05, elementwise_affine&#x3D;True)</span><br><span class="line">    )</span><br><span class="line">    (feed_forward): Position_wise_Feed_Forward(</span><br><span class="line">      (fc1): Linear(in_features&#x3D;300, out_features&#x3D;1024, bias&#x3D;True)</span><br><span class="line">      (fc2): Linear(in_features&#x3D;1024, out_features&#x3D;300, bias&#x3D;True)</span><br><span class="line">      (dropout): Dropout(p&#x3D;0.5, inplace&#x3D;False)</span><br><span class="line">      (layer_norm): LayerNorm((300,), eps&#x3D;1e-05, elementwise_affine&#x3D;True)</span><br><span class="line">    )</span><br><span class="line">  )</span><br><span class="line">  (encoders): ModuleList(</span><br><span class="line">    (0): Encoder(</span><br><span class="line">      (attention): Multi_Head_Attention(</span><br><span class="line">        (fc_Q): Linear(in_features&#x3D;300, out_features&#x3D;300, bias&#x3D;True)</span><br><span class="line">        (fc_K): Linear(in_features&#x3D;300, out_features&#x3D;300, bias&#x3D;True)</span><br><span class="line">        (fc_V): Linear(in_features&#x3D;300, out_features&#x3D;300, bias&#x3D;True)</span><br><span class="line">        (attention): Scaled_Dot_Product_Attention()</span><br><span class="line">        (fc): Linear(in_features&#x3D;300, out_features&#x3D;300, bias&#x3D;True)</span><br><span class="line">        (dropout): Dropout(p&#x3D;0.5, inplace&#x3D;False)</span><br><span class="line">        (layer_norm): LayerNorm((300,), eps&#x3D;1e-05, elementwise_affine&#x3D;True)</span><br><span class="line">      )</span><br><span class="line">      (feed_forward): Position_wise_Feed_Forward(</span><br><span class="line">        (fc1): Linear(in_features&#x3D;300, out_features&#x3D;1024, bias&#x3D;True)</span><br><span class="line">        (fc2): Linear(in_features&#x3D;1024, out_features&#x3D;300, bias&#x3D;True)</span><br><span class="line">        (dropout): Dropout(p&#x3D;0.5, inplace&#x3D;False)</span><br><span class="line">        (layer_norm): LayerNorm((300,), eps&#x3D;1e-05, elementwise_affine&#x3D;True)</span><br><span class="line">      )</span><br><span class="line">    )</span><br><span class="line">    (1): Encoder(</span><br><span class="line">      (attention): Multi_Head_Attention(</span><br><span class="line">        (fc_Q): Linear(in_features&#x3D;300, out_features&#x3D;300, bias&#x3D;True)</span><br><span class="line">        (fc_K): Linear(in_features&#x3D;300, out_features&#x3D;300, bias&#x3D;True)</span><br><span class="line">        (fc_V): Linear(in_features&#x3D;300, out_features&#x3D;300, bias&#x3D;True)</span><br><span class="line">        (attention): Scaled_Dot_Product_Attention()</span><br><span class="line">        (fc): Linear(in_features&#x3D;300, out_features&#x3D;300, bias&#x3D;True)</span><br><span class="line">        (dropout): Dropout(p&#x3D;0.5, inplace&#x3D;False)</span><br><span class="line">        (layer_norm): LayerNorm((300,), eps&#x3D;1e-05, elementwise_affine&#x3D;True)</span><br><span class="line">      )</span><br><span class="line">      (feed_forward): Position_wise_Feed_Forward(</span><br><span class="line">        (fc1): Linear(in_features&#x3D;300, out_features&#x3D;1024, bias&#x3D;True)</span><br><span class="line">        (fc2): Linear(in_features&#x3D;1024, out_features&#x3D;300, bias&#x3D;True)</span><br><span class="line">        (dropout): Dropout(p&#x3D;0.5, inplace&#x3D;False)</span><br><span class="line">        (layer_norm): LayerNorm((300,), eps&#x3D;1e-05, elementwise_affine&#x3D;True)</span><br><span class="line">      )</span><br><span class="line">    )</span><br><span class="line">  )</span><br><span class="line">  (fc1): Linear(in_features&#x3D;9600, out_features&#x3D;10, bias&#x3D;True)</span><br><span class="line">)&gt;</span><br><span class="line">start train</span><br><span class="line">Epoch [1&#x2F;20]</span><br><span class="line">Iter:      0,  Train Loss:   2.4,  Train Acc: 10.16%,  Val Loss:   4.6,  Val Acc: 10.02%,  Time: 0:00:01 *</span><br><span class="line">Iter:    100,  Train Loss:   1.4,  Train Acc: 53.12
…
<p>2.运行log</p>
<figure class="highlight plain"><table><tr><td class="code"><pre><span class="line">Loading data...</span><br><span class="line">Vocab size:4762</span><br><span class="line">180000it [00:03, 47432.48it&#x2F;s]</span><br><span class="line">10000it [00:00, 46997.85it&#x2F;s]</span><br><span class="line">10000it [00:00, 48451.14it&#x2F;s]Time usage: 0:00:04</span><br><span class="line">start train</span><br><span class="line">start model</span><br><span class="line">start network</span><br><span class="line">&lt;bound method Module.parameters of Model(</span><br><span class="line">  (embedding): Embedding(4762, 300)</span><br><span class="line">  (convs): ModuleList(</span><br><span class="line">    (0): Conv2d(1, 256, kernel_size&#x3D;(2, 300), stride&#x3D;(1, 1))</span><br><span class="line">    (1): Conv2d(1, 256, kernel_size&#x3D;(3, 300), stride&#x3D;(1, 1))</span><br><span class="line">    (2): Conv2d(1, 256, kernel_size&#x3D;(4, 300), stride&#x3D;(1, 1))</span><br><span class="line">  )</span><br><span class="line">  (dropout): Dropout(p&#x3D;0.5, inplace&#x3D;False)</span><br><span class="line">  (fc): Linear(in_features&#x3D;768, out_features&#x3D;10, bias&#x3D;True)</span><br><span class="line">)&gt;</span><br><span class="line">start train</span><br><span class="line">Epoch [1&#x2F;20]</span><br><span class="line">Iter:      0,  Train Loss:   2.3,  Train Acc: 14.84%,  Val Loss:   2.7,  Val Acc: 10.70%,  Time: 0:00:02 *</span><br><span class="line">Iter:    100,  Train Loss:  0.77,  Train Acc: 70.31%
…
<figure class="highlight plain"><table><tr><td class="code"><pre><span class="line">Loading data...</span><br><span class="line">Vocab size:4762</span><br><span class="line">180000it [00:12, 14970.72it&#x2F;s]</span><br><span class="line">10000it [00:00, 13435.87it&#x2F;s]</span><br><span class="line">10000it [00:00, 16773.90it&#x2F;s]</span><br><span class="line">Time usage: 0:00:13</span><br><span class="line">start train</span><br><span class="line">start model</span><br><span class="line">start network</span><br><span class="line">&lt;bound method Module.parameters of Model(</span><br><span class="line">  (embedding): Embedding(4762, 300)</span><br><span class="line">  (convs): ModuleList(</span><br><span class="line">    (0): Conv2d(1, 256, kernel_size&#x3D;(2, 300), stride&#x3D;(1, 1))</span><br><span class="line">    (1): Conv2d(1, 256, kernel_size&#x3D;(3, 300), stride&#x3D;(1, 1))</span><br><span class="line">    (2): Conv2d(1, 256, kernel_size&#x3D;(4, 300), stride&#x3D;(1, 1))</span><br><span class="line">  )</span><br><span class="line">  (dropout): Dropout(p&#x3D;0.5, inplace&#x3D;False)</span><br><span class="line">  (fc): Linear(in_features&#x3D;768, out_features&#x3D;10, bias&#x3D;True)</span><br><span class="line">)&gt;</span><br><span class="line">start train</span><br><span class="line">start model</span><br><span class="line">start network</span><br><span class="line">&lt;bound method Module.parameters of Model(</span><br><span class="line">  (embedding): Embedding(4762, 300)</span><br><span class="line">  (convs): ModuleList(</span><br><span class="line">    (0): Conv2d(1, 256, kernel_size&#x3D;(2, 300), stride&#x3D;(1, 1))</span><br><span class="line">    (1): Conv2d(1, 256, kernel_size&#x3D;(3, 300), stride&#x3D;(1, 1))</span><br><span class="line">    (2): Conv2d(1, 256, kernel_size&#x3D;(4, 300), stride&#x3D;(1, 1))</span><br><span class="line">  )</span><br><span class="line">  (dropout): Dropout(p&#x3D;0.5, inplace&#x3D;False)</span><br><span class="line">  (fc): Linear(in_features&#x3D;768, out_features&#x3D;10, bias&#x3D;True)</span><br><span class="line">)&gt;</span><br><span class="line">start train</span><br><span class="line">Epoch [1&#x2F;20]</span><br><span class="line">Iter:      0,  Train Loss:   2.3,  Train Acc: 11.72%,  Val Loss:   2.5,  Val Acc: 10.00%,  Time: 0:00:01 *</span><br><span class="line">Iter:    100,  Train Loss:  0.53,  Train Acc: 83.59%
…
